…
====================================================================================================
===========================================================================================================================================================
Layer (type (var_name))                                 Input Shape               Output Shape              Param #                   Trainable
===========================================================================================================================================================
MMDiTModel (MMDiTModel)                                 --                        [1, 64, 64]               --                        True
├─Linear (img_in)                                       [1, 64, 64]               [1, 64, 768]              49,920                    True
├─MLPEmbedder (time_in)                                 [1, 256]                  [1, 768]                  --                        True
│    └─Linear (in_layer)                                [1, 256]                  [1, 768]                  197,376                   True
│    └─SiLU (silu)                                      [1, 768]                  [1, 768]                  --                        --
│    └─Linear (out_layer)                               [1, 768]                  [1, 768]                  590,592                   True
├─MLPEmbedder (vector_in)                               [1, 512]                  [1, 768]                  --                        True
│    └─Linear (in_layer)                                [1, 512]                  [1, 768]                  393,984                   True
│    └─SiLU (silu)                                      [1, 768]                  [1, 768]                  --                        --
│    └─Linear (out_layer)                               [1, 768]                  [1, 768]                  590,592                   True
├─Linear (txt_in)                                       [1, 128, 512]             [1, 128, 768]             393,984                   True
├─EmbedND (pe_embedder)                                 [1, 192, 3]               [1, 1, 192, 32, 2, 2]     --                        --
├─ModuleList (double_blocks)                            --                        --                        --                        True
│    └─DoubleStreamBlock (0)                            [1, 64, 768]              [1, 64, 768]              --                        True
│    │    └─Modulation (img_mod)                        [1, 768]                  --                        --                        True
│    │    │    └─Linear (lin)                           [1, 768]                  [1, 4608]                 3,543,552                 True
│    │    └─Modulation (txt_mod)                        [1, 768]                  --                        --                        True
│    │    │    └─Linear (lin)                           [1, 768]                  [1, 4608]                 3,543,552                 True
│    │    └─LayerNorm (img_norm1)                       [1, 64, 768]              [1, 64, 768]              --                        --
│    │    └─SelfAttention (img_attn)                    --                        --                        (recursive)               True
│    │    │    └─Linear (q_proj)                        [1, 64, 768]              [1, 64, 768]              590,592                   True
│    │    │    └─Linear (k_proj)                        [1, 64, 768]              [1, 64, 768]              590,592                   True
│    │    │    └─Linear (v_proj)                        [1, 64, 768]              [1, 64, 768]              590,592                   True
│    │    │    └─QKNorm (norm)                          [1, 64, 12, 64]           [1, 64, 12, 64]           --                        True
│    │    │    │    └─FusedRMSNorm (query_norm)         [1, 64, 12, 64]           [1, 64, 12, 64]           64                        True
│    │    │    │    └─FusedRMSNorm (key_norm)           [1, 64, 12, 64]           [1, 64, 12, 64]           64                        True
│    │    └─LayerNorm (txt_norm1)                       [1, 128, 768]             [1, 128, 768]             --                        --
│    │    └─SelfAttention (txt_attn)                    --                        --                        (recursive)               True
│    │    │    └─Linear (q_proj)                        [1, 128, 768]             [1, 128, 768]             590,592                   True
│    │    │    └─Linear (k_proj)                        [1, 128, 768]             [1, 128, 768]             590,592                   True
│    │    │    └─Linear (v_proj)                        [1, 128, 768]             [1, 128, 768]             590,592                   True
│    │    │    └─QKNorm (norm)                          [1, 128, 12, 64]          [1, 128, 12, 64]          --                        True
│    │    │    │    └─FusedRMSNorm (query_norm)         [1, 128, 12, 64]          [1, 128, 12, 64]          64                        True
│    │    │    │    └─FusedRMSNorm (key_norm)           [1, 128, 12, 64]          [1, 128, 12, 64]          64                        True
│    │    └─SelfAttention (img_attn)                    --                        --                        (recursive)               True
│    │    │    └─Linear (proj)                          [1, 64, 768]              [1, 64, 768]              590,592                   True
│    │    └─LayerNorm (img_norm2)                       [1, 64, 768]              [1, 64, 768]              --                        --
│    │    └─Sequential (img_mlp)                        [1, 64, 768]              [1, 64, 768]              --                        True
│    │    │    └─Linear (0)                             [1, 64, 768]              [1, 64, 3072]             2,362,368                 True
│    │    │    └─GELU (1)                               [1, 64, 3072]             [1, 64, 3072]             --                        --
│    │    │    └─Linear (2)                             [1, 64, 3072]             [1, 64, 768]              2,360,064                 True
│    │    └─SelfAttention (txt_attn)                    --                        --                        (recursive)               True
│    │    │    └─Linear (proj)                          [1, 128, 768]             [1, 128, 768]             590,592                   True
│    │    └─LayerNorm (txt_norm2)                       [1, 128, 768]             [1, 128, 768]             --                        --
│    │    └─Sequential (txt_mlp)                        [1, 128, 768]             [1, 128, 768]             --                        True
│    │    │    └─Linear (0)                             [1, 128, 768]             [1, 128, 3072]            2,362,368                 True
│    │    │    └─GELU (1)                               [1, 128, 3072]            [1, 128, 3072]            --                        --
│    │    │    └─Linear (2)                             [1, 128, 3072]            [1, 128, 768]             2,360,064                 True
│    └─DoubleStreamBlock (1)                            [1, 64, 768]              [1, 64, 768]              --                        True
│    │    └─Modulation (img_mod)                        [1, 768]                  --                        --                        True
│    │    │    └─Linear (lin)                           [1, 768]                  [1, 4608]                 3,543,552                 True
│    │    └─Modulation (txt_mod)                        [1, 768]                  --                        --                        True
│    │    │    └─Linear (lin)                           [1, 768]                  [1, 4608]                 3,543,552                 True
│    │    └─LayerNorm (img_norm1)                       [1, 64, 768]              [1, 64, 768]              --                        --
│    │    └─SelfAttention (img_attn)                    --                        --                        (recursive)               True
│    │    │    └─Linear (q_proj)                        [1, 64, 768]              [1, 64, 768]              590,592                   True
│    │    │    └─Linear (k_proj)                        [1, 64, 768]              [1, 64, 768]              590,592                   True
│    │    │    └─Linear (v_proj)                        [1, 64, 768]              [1, 64, 768]              590,592                   True
│    │    │    └─QKNorm (norm)                          [1, 64, 12, 64]           [1, 64, 12, 64]           --                        True
│    │    │    │    └─FusedRMSNorm (query_norm)         [1, 64, 12, 64]           [1, 64, 12, 64]           64                        True
│    │    │    │    └─FusedRMSNorm (key_norm)           [1, 64, 12, 64]           [1, 64, 12, 64]           64                        True
│    │    └─LayerNorm (txt_norm1)                       [1, 128, 768]             [1, 128, 768]             --                        --
│    │    └─SelfAttention (txt_attn)                    --                        --                        (recursive)               True
│    │    │    └─Linear (q_proj)                        [1, 128, 768]             [1, 128, 768]             590,592                   True
│    │    │    └─Linear (k_proj)                        [1, 128, 768]             [1, 128, 768]             590,592                   True
│    │    │    └─Linear (v_proj)                        [1, 128, 768]             [1, 128, 768]             590,592                   True
│    │    │    └─QKNorm (norm)                          [1, 128, 12, 64]          [1, 128, 12, 64]          --                        True
│    │    │    │    └─FusedRMSNorm (query_norm)         [1, 128, 12, 64]          [1, 128, 12, 64]          64                        True
│    │    │    │    └─FusedRMSNorm (key_norm)           [1, 128, 12, 64]          [1, 128, 12, 64]          64                        True
│    │    └─SelfAttention (img_attn)                    --                        --                        (recursive)               True
│    │    │    └─Linear (proj)                          [1, 64, 768]              [1, 64, 768]              590,592                   True
│    │    └─LayerNorm (img_norm2)                       [1, 64, 768]              [1, 64, 768]              --                        --
│    │    └─Sequential (img_mlp)                        [1, 64, 768]              [1, 64, 768]              --                        True
│    │    │    └─Linear (0)                             [1, 64, 768]              [1, 64, 3072]             2,362,368                 True
│    │    │    └─GELU (1)                               [1, 64, 3072]             [1, 64, 3072]             --                        --
│    │    │    └─Linear (2)                             [1, 64, 3072]             [1, 64, 768]              2,360,064                 True
│    │    └─SelfAttention (txt_attn)                    --                        --                        (recursive)               True
│    │    │    └─Linear (proj)                          [1, 128, 768]             [1, 128, 768]             590,592                   True
│    │    └─LayerNorm (txt_norm2)                       [1, 128, 768]             [1, 128, 768]             --                        --
│    │    └─Sequential (txt_mlp)                        [1, 128, 768]             [1, 128, 768]             --                        True
│    │    │    └─Linear (0)                             [1, 128, 768]             [1, 128, 3072]            2,362,368                 True
│    │    │    └─GELU (1)                               [1, 128, 3072]            [1, 128, 3072]            --                        --
│    │    │    └─Linear (2)                             [1, 128, 3072]            [1, 128, 768]             2,360,064                 True
│    └─DoubleStreamBlock (2)                            [1, 64, 768]              [1, 64, 768]              --                        True
│    │    └─Modulation (img_mod)                        [1, 768]                  --                        --                        True
│    │    │    └─Linear (lin)                           [1, 768]                  [1, 4608]                 3,543,552                 True
│    │    └─Modulation (txt_mod)                        [1, 768]                  --                        --                        True
│    │    │    └─Linear (lin)                           [1, 768]                  [1, 4608]                 3,543,552                 True
│    │    └─LayerNorm (img_norm1)                       [1, 64, 768]              [1, 64, 768]              --                        --
│    │    └─SelfAttention (img_attn)                    --                        --                        (recursive)               True
│    │    │    └─Linear (q_proj)                        [1, 64, 768]              [1, 64, 768]              590,592                   True
│    │    │    └─Linear (k_proj)                        [1, 64, 768]              [1, 64, 768]              590,592                   True
│    │    │    └─Linear (v_proj)                        [1, 64, 768]              [1, 64, 768]              590,592                   True
│    │    │    └─QKNorm (norm)                          [1, 64, 12, 64]           [1, 64, 12, 64]           --                        True
│    │    │    │    └─FusedRMSNorm (query_norm)         [1, 64, 12, 64]           [1, 64, 12, 64]           64                        True
│    │    │    │    └─FusedRMSNorm (key_norm)           [1, 64, 12, 64]           [1, 64, 12, 64]           64                        True
│    │    └─LayerNorm (txt_norm1)                       [1, 128, 768]             [1, 128, 768]             --                        --
│    │    └─SelfAttention (txt_attn)                    --                        --                        (recursive)               True
│    │    │    └─Linear (q_proj)                        [1, 128, 768]             [1, 128, 768]             590,592                   True
│    │    │    └─Linear (k_proj)                        [1, 128, 768]             [1, 128, 768]             590,592                   True
│    │    │    └─Linear (v_proj)                        [1, 128, 768]             [1, 128, 768]             590,592                   True
│    │    │    └─QKNorm (norm)                          [1, 128, 12, 64]          [1, 128, 12, 64]          --                        True
│    │    │    │    └─FusedRMSNorm (query_norm)         [1, 128, 12, 64]          [1, 128, 12, 64]          64                        True
│    │    │    │    └─FusedRMSNorm (key_norm)           [1, 128, 12, 64]          [1, 128, 12, 64]          64                        True
│    │    └─SelfAttention (img_attn)                    --                        --                        (recursive)               True
│    │    │    └─Linear (proj)                          [1, 64, 768]              [1, 64, 768]              590,592                   True
│    │    └─LayerNorm (img_norm2)                       [1, 64, 768]              [1, 64, 768]              --                        --
│    │    └─Sequential (img_mlp)                        [1, 64, 768]              [1, 64, 768]              --                        True
│    │    │    └─Linear (0)                             [1, 64, 768]              [1, 64, 3072]             2,362,368                 True
│    │    │    └─GELU (1)                               [1, 64, 3072]             [1, 64, 3072]             --                        --
│    │    │    └─Linear (2)                             [1, 64, 3072]             [1, 64, 768]              2,360,064                 True
│    │    └─SelfAttention (txt_attn)                    --                        --                        (recursive)               True
│    │    │    └─Linear (proj)                          [1, 128, 768]             [1, 128, 768]             590,592                   True
│    │    └─LayerNorm (txt_norm2)                       [1, 128, 768]             [1, 128, 768]             --                        --
│    │    └─Sequential (txt_mlp)                        [1, 128, 768]             [1, 128, 768]             --                        True
│    │    │    └─Linear (0)                             [1, 128, 768]             [1, 128, 3072]            2,362,368                 True
│    │    │    └─GELU (1)                               [1, 128, 3072]            [1, 128, 3072]            --                        --
│    │    │    └─Linear (2)                             [1, 128, 3072]            [1, 128, 768]             2,360,064                 True
│    └─DoubleStreamBlock (3)                            [1, 64, 768]              [1, 64, 768]              --                        True
│    │    └─Modulation (img_mod)                        [1, 768]                  --                        --                        True
│    │    │    └─Linear (lin)                           [1, 768]                  [1, 4608]                 3,543,552                 True
│    │    └─Modulation (txt_mod)                        [1, 768]                  --                        --                        True
│    │    │    └─Linear (lin)                           [1, 768]                  [1, 4608]                 3,543,552                 True
│    │    └─LayerNorm (img_norm1)                       [1, 64, 768]              [1, 64, 768]              --                        --
│    │    └─SelfAttention (img_attn)                    --                        --                        (recursive)               True
│    │    │    └─Linear (q_proj)                        [1, 64, 768]              [1, 64, 768]              590,592                   True
│    │    │    └─Linear (k_proj)                        [1, 64, 768]              [1, 64, 768]              590,592                   True
│    │    │    └─Linear (v_proj)                        [1, 64, 768]              [1, 64, 768]              590,592                   True
│    │    │    └─QKNorm (norm)                          [1, 64, 12, 64]           [1, 64, 12, 64]           --                        True
│    │    │    │    └─FusedRMSNorm (query_norm)         [1, 64, 12, 64]           [1, 64, 12, 64]           64                        True
│    │    │    │    └─FusedRMSNorm (key_norm)           [1, 64, 12, 64]           [1, 64, 12, 64]           64                        True
│    │    └─LayerNorm (txt_norm1)                       [1, 128, 768]             [1, 128, 768]             --                        --
│    │    └─SelfAttention (txt_attn)                    --                        --                        (recursive)               True
│    │    │    └─Linear (q_proj)                        [1, 128, 768]             [1, 128, 768]             590,592                   True
│    │    │    └─Linear (k_proj)                        [1, 128, 768]             [1, 128, 768]             590,592                   True
│    │    │    └─Linear (v_proj)                        [1, 128, 768]             [1, 128, 768]             590,592                   True
│    │    │    └─QKNorm (norm)                          [1, 128, 12, 64]          [1, 128, 12, 64]          --                        True
│    │    │    │    └─FusedRMSNorm (query_norm)         [1, 128, 12, 64]          [1, 128, 12, 64]          64                        True
│    │    │    │    └─FusedRMSNorm (key_norm)           [1, 128, 12, 64]          [1, 128, 12, 64]          64                        True
│    │    └─SelfAttention (img_attn)                    --                        --                        (recursive)               True
│    │    │    └─Linear (proj)                          [1, 64, 768]              [1, 64, 768]              590,592                   True
│    │    └─LayerNorm (img_norm2)                       [1, 64, 768]              [1, 64, 768]              --                        --
│    │    └─Sequential (img_mlp)                        [1, 64, 768]              [1, 64, 768]              --                        True
│    │    │    └─Linear (0)                             [1, 64, 768]              [1, 64, 3072]             2,362,368                 True
│    │    │    └─GELU (1)                               [1, 64, 3072]             [1, 64, 3072]             --                        --
│    │    │    └─Linear (2)                             [1, 64, 3072]             [1, 64, 768]              2,360,064                 True
│    │    └─SelfAttention (txt_attn)                    --                        --                        (recursive)               True
│    │    │    └─Linear (proj)                          [1, 128, 768]             [1, 128, 768]             590,592                   True
│    │    └─LayerNorm (txt_norm2)                       [1, 128, 768]             [1, 128, 768]             --                        --
│    │    └─Sequential (txt_mlp)                        [1, 128, 768]             [1, 128, 768]             --                        True
│    │    │    └─Linear (0)                             [1, 128, 768]             [1, 128, 3072]            2,362,368                 True
│    │    │    └─GELU (1)                               [1, 128, 3072]            [1, 128, 3072]            --                        --
│    │    │    └─Linear (2)                             [1, 128, 3072]            [1, 128, 768]             2,360,064                 True
├─ModuleList (single_blocks)                            --                        --                        --                        True
│    └─SingleStreamBlock (0)                            [1, 192, 768]             [1, 192, 768]             --                        True
│    │    └─Modulation (modulation)                     [1, 768]                  --                        --                        True
│    │    │    └─Linear (lin)                           [1, 768]                  [1, 2304]                 1,771,776                 True
│    │    └─LayerNorm (pre_norm)                        [1, 192, 768]             [1, 192, 768]             --                        --
│    │    └─Linear (q_proj)                             [1, 192, 768]             [1, 192, 768]             590,592                   True
│    │    └─Linear (k_proj)                             [1, 192, 768]             [1, 192, 768]             590,592                   True
│    │    └─Linear (v_mlp)                              [1, 192, 768]             [1, 192, 3840]            2,952,960                 True
│    │    └─QKNorm (norm)                               [1, 192, 12, 64]          [1, 192, 12, 64]          --                        True
│    │    │    └─FusedRMSNorm (query_norm)              [1, 192, 12, 64]          [1, 192, 12, 64]          64                        True
│    │    │    └─FusedRMSNorm (key_norm)                [1, 192, 12, 64]          [1, 192, 12, 64]          64                        True
│    │    └─GELU (mlp_act)                              [1, 192, 3072]            [1, 192, 3072]            --                        --
│    │    └─Linear (linear2)                            [1, 192, 3840]            [1, 192, 768]             2,949,888                 True
│    └─SingleStreamBlock (1)                            [1, 192, 768]             [1, 192, 768]             --                        True
│    │    └─Modulation (modulation)                     [1, 768]                  --                        --                        True
│    │    │    └─Linear (lin)                           [1, 768]                  [1, 2304]                 1,771,776                 True
│    │    └─LayerNorm (pre_norm)                        [1, 192, 768]             [1, 192, 768]             --                        --
│    │    └─Linear (q_proj)                             [1, 192, 768]             [1, 192, 768]             590,592                   True
│    │    └─Linear (k_proj)                             [1, 192, 768]             [1, 192, 768]             590,592                   True
│    │    └─Linear (v_mlp)                              [1, 192, 768]             [1, 192, 3840]            2,952,960                 True
│    │    └─QKNorm (norm)                               [1, 192, 12, 64]          [1, 192, 12, 64]          --                        True
│    │    │    └─FusedRMSNorm (query_norm)              [1, 192, 12, 64]          [1, 192, 12, 64]          64                        True
│    │    │    └─FusedRMSNorm (key_norm)                [1, 192, 12, 64]          [1, 192, 12, 64]          64                        True
│    │    └─GELU (mlp_act)                              [1, 192, 3072]            [1, 192, 3072]            --                        --
│    │    └─Linear (linear2)                            [1, 192, 3840]            [1, 192, 768]             2,949,888                 True
│    └─SingleStreamBlock (2)                            [1, 192, 768]             [1, 192, 768]             --                        True
│    │    └─Modulation (modulation)                     [1, 768]                  --                        --                        True
│    │    │    └─Linear (lin)                           [1, 768]                  [1, 2304]                 1,771,776                 True
│    │    └─LayerNorm (pre_norm)                        [1, 192, 768]             [1, 192, 768]             --                        --
│    │    └─Linear (q_proj)                             [1, 192, 768]             [1, 192, 768]             590,592                   True
│    │    └─Linear (k_proj)                             [1, 192, 768]             [1, 192, 768]             590,592                   True
│    │    └─Linear (v_mlp)                              [1, 192, 768]             [1, 192, 3840]            2,952,960                 True
│    │    └─QKNorm (norm)                               [1, 192, 12, 64]          [1, 192, 12, 64]          --                        True
│    │    │    └─FusedRMSNorm (query_norm)              [1, 192, 12, 64]          [1, 192, 12, 64]          64                        True
│    │    │    └─FusedRMSNorm (key_norm)                [1, 192, 12, 64]          [1, 192, 12, 64]          64                        True
│    │    └─GELU (mlp_act)                              [1, 192, 3072]            [1, 192, 3072]            --                        --
│    │    └─Linear (linear2)                            [1, 192, 3840]            [1, 192, 768]             2,949,888                 True
│    └─SingleStreamBlock (3)                            [1, 192, 768]             [1, 192, 768]             --                        True
│    │    └─Modulation (modulation)                     [1, 768]                  --                        --                        True
│    │    │    └─Linear (lin)                           [1, 768]                  [1, 2304]                 1,771,776                 True
│    │    └─LayerNorm (pre_norm)                        [1, 192, 768]             [1, 192, 768]             --                        --
│    │    └─Linear (q_proj)                             [1, 192, 768]             [1, 192, 768]             590,592                   True
│    │    └─Linear (k_proj)                             [1, 192, 768]             [1, 192, 768]             590,592                   True
│    │    └─Linear (v_mlp)                              [1, 192, 768]             [1, 192, 3840]            2,952,960                 True
│    │    └─QKNorm (norm)                               [1, 192, 12, 64]          [1, 192, 12, 64]          --                        True
│    │    │    └─FusedRMSNorm (query_norm)              [1, 192, 12, 64]          [1, 192, 12, 64]          64                        True
│    │    │    └─FusedRMSNorm (key_norm)                [1, 192, 12, 64]          [1, 192, 12, 64]          64                        True
│    │    └─GELU (mlp_act)                              [1, 192, 3072]            [1, 192, 3072]            --                        --
│    │    └─Linear (linear2)                            [1, 192, 3840]            [1, 192, 768]             2,949,888                 True
│    └─SingleStreamBlock (4)                            [1, 192, 768]             [1, 192, 768]             --                        True
│    │    └─Modulation (modulation)                     [1, 768]                  --                        --                        True
│    │    │    └─Linear (lin)                           [1, 768]                  [1, 2304]                 1,771,776                 True
│    │    └─LayerNorm (pre_norm)                        [1, 192, 768]             [1, 192, 768]             --                        --
│    │    └─Linear (q_proj)                             [1, 192, 768]             [1, 192, 768]             590,592                   True
│    │    └─Linear (k_proj)                             [1, 192, 768]             [1, 192, 768]             590,592                   True
│    │    └─Linear (v_mlp)                              [1, 192, 768]             [1, 192, 3840]            2,952,960                 True
│    │    └─QKNorm (norm)                               [1, 192, 12, 64]          [1, 192, 12, 64]          --                        True
│    │    │    └─FusedRMSNorm (query_norm)              [1, 192, 12, 64]          [1, 192, 12, 64]          64                        True
│    │    │    └─FusedRMSNorm (key_norm)                [1, 192, 12, 64]          [1, 192, 12, 64]          64                        True
│    │    └─GELU (mlp_act)                              [1, 192, 3072]            [1, 192, 3072]            --                        --
│    │    └─Linear (linear2)                            [1, 192, 3840]            [1, 192, 768]             2,949,888                 True
│    └─SingleStreamBlock (5)                            [1, 192, 768]             [1, 192, 768]             --                        True
│    │    └─Modulation (modulation)                     [1, 768]                  --                        --                        True
│    │    │    └─Linear (lin)                           [1, 768]                  [1, 2304]                 1,771,776                 True
│    │    └─LayerNorm (pre_norm)                        [1, 192, 768]             [1, 192, 768]             --                        --
│    │    └─Linear (q_proj)                             [1, 192, 768]             [1, 192, 768]             590,592                   True
│    │    └─Linear (k_proj)                             [1, 192, 768]             [1, 192, 768]             590,592                   True
│    │    └─Linear (v_mlp)                              [1, 192, 768]             [1, 192, 3840]            2,952,960                 True
│    │    └─QKNorm (norm)                               [1, 192, 12, 64]          [1, 192, 12, 64]          --                        True
│    │    │    └─FusedRMSNorm (query_norm)              [1, 192, 12, 64]          [1, 192, 12, 64]          64                        True
│    │    │    └─FusedRMSNorm (key_norm)                [1, 192, 12, 64]          [1, 192, 12, 64]          64                        True
│    │    └─GELU (mlp_act)                              [1, 192, 3072]            [1, 192, 3072]            --                        --
│    │    └─Linear (linear2)                            [1, 192, 3840]            [1, 192, 768]             2,949,888                 True
│    └─SingleStreamBlock (6)                            [1, 192, 768]             [1, 192, 768]             --                        True
│    │    └─Modulation (modulation)                     [1, 768]                  --                        --                        True
│    │    │    └─Linear (lin)                           [1, 768]                  [1, 2304]                 1,771,776                 True
│    │    └─LayerNorm (pre_norm)                        [1, 192, 768]             [1, 192, 768]             --                        --
│    │    └─Linear (q_proj)                             [1, 192, 768]             [1, 192, 768]             590,592                   True
│    │    └─Linear (k_proj)                             [1, 192, 768]             [1, 192, 768]             590,592                   True
│    │    └─Linear (v_mlp)                              [1, 192, 768]             [1, 192, 3840]            2,952,960                 True
│    │    └─QKNorm (norm)                               [1, 192, 12, 64]          [1, 192, 12, 64]          --                        True
│    │    │    └─FusedRMSNorm (query_norm)              [1, 192, 12, 64]          [1, 192, 12, 64]          64                        True
│    │    │    └─FusedRMSNorm (key_norm)                [1, 192, 12, 64]          [1, 192, 12, 64]          64                        True
│    │    └─GELU (mlp_act)                              [1, 192, 3072]            [1, 192, 3072]            --                        --
│    │    └─Linear (linear2)                            [1, 192, 3840]            [1, 192, 768]             2,949,888                 True
│    └─SingleStreamBlock (7)                            [1, 192, 768]             [1, 192, 768]             --                        True
│    │    └─Modulation (modulation)                     [1, 768]                  --                        --                        True
│    │    │    └─Linear (lin)                           [1, 768]                  [1, 2304]                 1,771,776                 True
│    │    └─LayerNorm (pre_norm)                        [1, 192, 768]             [1, 192, 768]             --                        --
│    │    └─Linear (q_proj)                             [1, 192, 768]             [1, 192, 768]             590,592                   True
│    │    └─Linear (k_proj)                             [1, 192, 768]             [1, 192, 768]             590,592                   True
│    │    └─Linear (v_mlp)                              [1, 192, 768]             [1, 192, 3840]            2,952,960                 True
│    │    └─QKNorm (norm)                               [1, 192, 12, 64]          [1, 192, 12, 64]          --                        True
│    │    │    └─FusedRMSNorm (query_norm)              [1, 192, 12, 64]          [1, 192, 12, 64]          64                        True
│    │    │    └─FusedRMSNorm (key_norm)                [1, 192, 12, 64]          [1, 192, 12, 64]          64                        True
│    │    └─GELU (mlp_act)                              [1, 192, 3072]            [1, 192, 3072]            --                        --
│    │    └─Linear (linear2)                            [1, 192, 3840]            [1, 192, 768]             2,949,888                 True
├─LastLayer (final_layer)                               [1, 64, 768]              [1, 64, 64]               --                        True
│    └─Sequential (adaLN_modulation)                    [1, 768]                  [1, 1536]                 --                        True
│    │    └─SiLU (0)                                    [1, 768]                  [1, 768]                  --                        --
│    │    └─Linear (1)                                  [1, 768]                  [1, 1536]                 1,181,184                 True
│    └─LayerNorm (norm_final)                           [1, 64, 768]              [1, 64, 768]              --                        --
│    └─Linear (linear)                                  [1, 64, 768]              [1, 64, 64]               49,216                    True
===========================================================================================================================================================
Total params: 159,322,176
Trainable params: 159,322,176
Non-trainable params: 0
Total mult-adds (M): 159.32
===========================================================================================================================================================
…
